training/gcn_model_weights.pth (torch, 14764 bytes, 6 tensors)

conv1.bias f4 [16]
0	0x3ea86fc7	0.3289778
1	0x3f114007	0.5673832
2	0x800bfe84	-1.101493e-39
3	0x3e1e3d01	0.15452959
4	0x3eab0460	0.33401775
5	0x3f8e7d2b	1.1131948
6	0x3ec72863	0.38898
7	0x3e2e66ae	0.17031357
8	0xbd72d4c3	-0.059284937
9	0x3e781536	0.24226841
10	0x3ebdbdba	0.37058812
11	0x3e70496c	0.23465508
12	0xbdd981ea	-0.10620482
13	0x984a61b7	-2.6157221e-24
14	0x3c92eafc	0.017934315
15	0xbe6c9c8c	-0.23106593

conv1.lin.weight f4 [16, 166]
0	0xbe2295ec	-0.15877503
1	0x3d4c6231	0.04989833
2	0xbeb79806	-0.35858172
3	0x3d829180	0.06375408
4	0x3da0cd7f	0.07851695
5	0xbd5224c8	-0.05130461
6	0x3df0f1af	0.117648475
7	0xbd2cd6bc	-0.042196974
8	0x3d4c0384	0.04980804
9	0x3ceec2dc	0.02914565
10	0x3df69228	0.12039596
11	0x3d75a619	0.059972856
12	0xbb92f961	-0.0044852947
13	0x3e41362f	0.18868326
14	0xbd569415	-0.052387316
15	0x37c4aa90	2.3444445e-05
16	0xbda9c1dd	-0.082889296
17	0x3d1f1e58	0.038847297
18	0x3d93eb18	0.07222575
19	0x3d8c6961	0.06856037
20	0x3be24538	0.006905224
21	0x3cd85cd8	0.026411459
22	0xbd11c76e	-0.03559058
23	0xbc86072e	-0.016360845
24	0x3d7d4a4c	0.061838433
25	0x3c82ea59	0.015980886
26	0xbd2969e1	-0.04136074
27	0x3dde9d3f	0.10869836
28	0xbd118bb8	-0.035533637
29	0xbc85e96e	-0.01634666
30	0x3d7d4134	0.06182976
31	0x3c8338a2	0.016018216
32	0xbcd8a232	-0.026444528
33	0x3dffcd90	0.1249038
34	0xbd4690e5	-0.048478026
35	0xbd9f5a61	-0.0778091
36	0xbdf571c3	-0.11984589
37	0xbd7bec68	-0.06150475
38	0xba8f1da2	-0.0010918865
39	0x3c4fb078	0.012676351
40	0xbdb6f2d0	-0.089330316
41	0xbdc8af6f	-0.09799086
42	0xbd03af9a	-0.03214989
43	0xbdb9a992	-0.09065546
44	0x3e013381	0.12617303
45	0x39a66605	0.00031737998
46	0xbd85d5f2	-0.065349475
47	0xbda0c18b	-0.078494154
48	0xbd93650d	-0.07197008
49	0xbd8f89a5	-0.070086755
50	0x3dcdcd6a	0.10048945
51	0xbd1e01ba	-0.038575865
52	0x3cedd84b	0.0290338
53	0xbd0626af	-0.032751735
54	0xbc2c2df6	-0.010509005
55	0x3d4d6363	0.05014361
56	0xbd8dc039	-0.06921429
57	0xbde92436	-0.1138386
58	0xbc85d7f0	-0.016338319
59	0xbbf91e75	-0.0076025077
60	0xbc3786a2	-0.011201533
61	0xbc47b28f	-0.012188568
62	0xbb4aa4a4	-0.0030920887
63	0x3d044a55	0.03229745
64	0xbc85c1a8	-0.016327694
65	0xbbfa752d	-0.007643363
66	0xbc37b7b3	-0.011213231
67	0xbc483caa	-0.012221495
68	0xbc668905	-0.014070754
69	0x3d1bdd57	0.038052883
70	0xbd2d672f	-0.04233473
71	0x3cf6cdc7	0.03012742
72	0x3cc554f3	0.024088359
73	0x3c8213d0	0.015878588
74	0xbd1e6e7d	-0.03867959
75	0xbcdcef00	-0.026969433
76	0xbe92471c	-0.28569877
77	0x3d1c682d	0.038185287
78	0x3d786e2f	0.060651954
79	0xbc0462f2	-0.008080231
80	0xbdbdc58d	-0.092661954
81	0xbd9b36cb	-0.0757881
82	0xbd0bf46c	-0.034168646
83	0xbc5c770a	-0.0134561155
84	0xbc89bbcb	-0.01681318
85	0xbcd1908c	-0.02558162
86	0xbd85f28d	-0.065404035
87	0xbd3df39d	-0.046374906
88	0xbcb1a71f	-0.021686135
89	0x3d8ee093	0.06976428
90	0x3db7b9b7	0.08970969
91	0x3cdc11c6	0.026863944
92	0x3e15366a	0.14571539
93	0x3dd37548	0.10325104
94	0x3ce82e5a	0.028342415
95	0x3da63095	0.08114735
96	0x3d0970b9	0.033554766
97	0xbc8f1c88	-0.01746966
98	0xbdd357b9	-0.10319466
99	0xbdf4b0a2	-0.119477525
100	0xbdb847af	-0.089980476
101	0xbdbd18e8	-0.09233266
102	0x3d899d5a	0.067194656
103	0xbe00e384	-0.1258679
104	0xbcd9e05b	-0.026596239
105	0x3dd123ba	0.102118924
106	0x3d449868	0.04799691
107	0x3c259d3e	0.01010829
108	0x3d881c0b	0.06645974
109	0x3d929db8	0.07158989
110	0x3c40a17b	0.01175725
111	0x3e3a5897	0.18197857
112	0x3d6166a1	0.055029515
113	0xbdce2630	-0.100658774
114	0xbe982ab7	-0.2972009
115	0xbdae619b	-0.085147105
116	0xbdddb9a8	-0.10826427
117	0xbe03de69	-0.12877811
118	0x3d447a2d	0.04796808
119	0x3ca2bcba	0.019865382
120	0x3e005dd7	0.12535797
121	0x3ddec6f3	0.1087779
122	0x3da8f7ab	0.08250364
123	0xbdc5fff5	-0.096679606
124	0x3bf02c26	0.0073294817
125	0x3df56b70	0.11983383
126	0xbbd048d7	-0.0063563394
127	0xbe00eb08	-0.12589657
128	0x3d87c903	0.06630137
129	0x3bae6870	0.0053225085
130	0x3e42c829	0.19021668
131	0x3d468b38	0.048472613
132	0xbd620675	-0.05518194
133	0x3d4b17c9	0.04958323
134	0x3d4cc58a	0.049993075
135	0x3dbb75ca	0.09153326
136	0x3d5bdfdc	0.053680286
137	0xba64e759	-0.0008731983
138	0xbe330c3c	-0.17485136
139	0x3c791a54	0.015204031
140	0xbb65e995	-0.0035081853
141	0xbd1bf3a9	-0.03807417
142	0xbe0436bb	-0.12911503
143	0xbbd28ca3	-0.0064254566
144	0xbd34e292	-0.044161387
145	0xbdf6ab6f	-0.12044417
146	0xbd7c81c6	-0.0616472
147	0xbd4cd32d	-0.05000608
148	0xbe557864	-0.20846707
149	0xbdbc16ac	-0.09184012
150	0x3d727942	0.05919767
151	0xbe23007f	-0.15918158
152	0xbda4cc04	-0.080467254
153	0xbdbe3f81	-0.09289456
154	0x3c20f5f2	0.009824263
155	0x3d83010a	0.063966826
156	0x3dd18b47	0.10231643
157	0x3c63e026	0.013908422
158	0x3d6a0fe8	0.057144076
159	0x3e15de10	0.14635491
160	0x3c895e38	0.01676856
161	0xbd83a7ae	-0.06428467
162	0x3cc62ee0	0.024192274
163	0x3dcc274d	0.099684335
164	0xbd410193	-0.047120642
165	0xbca9d2d0	-0.020730406
166	0xbd5de7c2	-0.0541761
167	0xbbdf06ba	-0.006806222
168	0x3ca0590e	0.019573715
169	0xbe901863	-0.28143606
170	0xbd7b0c60	-0.0612911
171	0xbcf9e5b6	-0.030505043
172	0x3d8d6aa7	0.06905108
173	0xbe2c2e8c	-0.16814631
174	0xbcf6fe92	-0.030150685
175	0xbb15b38a	-0.002284261
176	0x3b19c820	0.002346523
177	0xbd05bb4f	-0.032649335
178	0x3dca00a0	0.098634005
179	0x3da5d90d	0.0809804
180	0xbd00b6e3	-0.031424414
181	0x398ca91e	0.00026828883
182	0xbbf9a4a0	-0.007618502
183	0x3d6c7b97	0.057735052
184	0x3de6edc9	0.11275823
185	0x3dbc0b4b	0.091818415
186	0xbe22f1fb	-0.1591262
187	0xbb74cea8	-0.0037354622
188	0xbc1b31be	-0.009472309
189	0x3d384d6c	0.04499571
190	0x3c0a555a	0.008443201
191	0xbc9f991f	-0.019482194
192	0xbd2c4b36	-0.042063914
193	0x3d311006	0.04322817
194	0xbb993ec8	-0.0046766736
195	0x3d511fa8	0.05105558
196	0xbc15e129	-0.009147921
197	0xbd3fa9ce	-0.046792798
198	0xbd56d2af	-0.052447017
199	0x3d0f742b	0.035022896
200	0xbb263758	-0.0025362577
201	0x3da77b87	0.08177858
202	0x3d41de16	0.04733094
203	0xbc602e0a	-0.013682852
204	0xbdcbc52e	-0.099497184
205	0x3dd38ab3	0.10329189
206	0xbd587390	-0.052844584
207	0x3c99a07c	0.018753283
208	0x3cb7daa0	0.022443116
209	0xbd3b9feb	-0.045806807
210	0xbd6bb024	-0.057541028
211	0x3d983b55	0.07433192
212	0x3ce324a2	0.027727429
213	0x3cd65cb1	0.026167246
214	0xbdeaa9ef	-0.114581935
215	0x3c463ca1	0.012099416
216	0xbe2c65e3	-0.16835742
217	0x3e3f76fd	0.18697734
218	0xbd0ce859	-0.03440127
219	0x3dc2e91f	0.095171206
220	0x3d88fdf6	0.06689064
221	0xbcb8f50c	-0.022577785
222	0xbe12da99	-0.14341201
223	0x3d967ea8	0.073483765
224	0x3b80aa00	0.0039265156
225	0x3dafd73f	0.08585977
226	0x3c29c00c	0.010360729
227	0xbd6b8788	-0.0575023
228	0xbe80f21b	-0.25184712
229	0xbe97f30f	-0.29677626
230	0x3b80c569	0.003929783
231	0x3d09e1b1	0.0336625
232	0xbb98e0f2	-0.0046654874
233	0xbd81c9e0	-0.06337333
234	0xbe0f4dc5	-0.1399451
235	0xbe24ef16	-0.16106829
236	0xbc8061fc	-0.015671723
237	0xbe14d59b	-0.14534609
238	0xbdd7ec57	-0.10543125
239	0xbd8e75c9	-0.069560595
240	0xbc09cc10	-0.008410469
241	0x3d1f6856	0.038917862
242	0xbe0b8774	-0.1362589
243	0x3d20f326	0.039294384
244	0xbd06b433	-0.032886695
245	0xbdcaed2b	-0.099085175
246	0x3e8330a6	0.25623053
247	0x3e29c22c	0.16577977
248	0x3d3eb76d	0.046561647
249	0x3e0c41a7	0.1369692
250	0x3d977090	0.073945165
251	0x3d059388	0.0326114
252	0x3d816578	0.06318182
253	0xbda1c7fc	-0.07899472
254	0x3cac9734	0.021068193
255	0x3e225fea	0.15856901

conv2.bias f4 [16]
0	0x3e285523	0.16438727
1	0x3e1cc848	0.15310776
2	0x3e2779f6	0.16355118
3	0x3e2774a4	0.16353089
4	0x3e2ca5eb	0.16860168
5	0x3e23953a	0.15974894
6	0xbce80da7	-0.028326822
7	0x3e26a65b	0.16274397
8	0x3e23ac38	0.15983665
9	0x3e23c28f	0.15992187
10	0x3e26ce78	0.16289699
11	0x3e22b15b	0.15887968
12	0x3e206f02	0.15667346
13	0x3e21ae33	0.15789108
14	0x3e274e0f	0.1633837
15	0x3e25a60e	0.16176626

conv2.lin.weight f4 [16, 16]
0	0x3e85376e	0.26018852
1	0x3e9b526a	0.30336314
2	0x800113e9	-9.8978e-41
3	0xbeaef687	-0.3417246
4	0x3eabe84d	0.3357567
5	0xbeaf7a0a	-0.34272796
6	0x3ea01ace	0.3127045
7	0x3e78481e	0.2424626
8	0x3e6dfe62	0.2324157
9	0x3e9f3f95	0.31103197
10	0x3e960500	0.2930069
11	0x3eccb5a3	0.39982328
12	0x3e482c20	0.19548082
13	0x0886fa5e	8.123693e-34
14	0x3e7b21db	0.24524634
15	0x3e8966b5	0.26836172
16	0x3e85be9f	0.26121995
17	0x3e9af1d6	0.3026263
18	0x8000287e	-1.4526e-41
19	0xbeb043a7	-0.34426615
20	0x3ea9bcc1	0.3315182
21	0xbeac2064	-0.33618462
22	0x3e9c229b	0.30495152
23	0x3e7d877f	0.24758719
24	0x3e5e22d8	0.2169298
25	0x3e9f835c	0.31154907
26	0x3e8994f5	0.26871458
27	0x3ec88a4e	0.39168018
28	0x3e4384b7	0.19093595
29	0x057cb274	1.188176e-35
30	0x3e7b0713	0.24514417
31	0x3e85ff15	0.26171175
32	0x3e860060	0.2617216
33	0x3e96e50a	0.29471618
34	0x0001575c	1.23174e-40
35	0xbeadb4d8	-0.33927035
36	0x3ea567fc	0.32305896
37	0xbeb000ac	-0.34375513
38	0x3e99966f	0.29997584
39	0x3e74628f	0.23865722
40	0x3e610c89	0.21977438
41	0x3ea056cc	0.3131622
42	0x3e915917	0.28388283
43	0x3ec7db1e	0.3903436
44	0x3e46245f	0.19349812
45	0x008f0361	1.3133688e-38
46	0x3e80ca2c	0.25154245
47	0x3e8da359	0.27663687
48	0x3e867784	0.26263058
49	0x3ea42769	0.32061318
50	0x0000a016	5.7428e-41
51	0xbeb0168f	-0.3439221
52	0x3ea145dc	0.3149861
53	0xbead715e	-0.33875555
54	0x3e9b19a5	0.30293003
55	0x3e79c2cb	0.24390714
56	0x3e65a5b5	0.22426493
57	0x3e943802	0.2894898
58	0x3e8a64cf	0.27030036
59	0x3ec0f7ba	0.37689
60	0x3e4cc7bc	0.19998068
61	0x00258a45	3.447515e-39
62	0x3e760615	0.24025758
63	0x3e890ef0	0.2676921
64	0x3e785766	0.2425209
65	0x3e9bf7f6	0.30462617
66	0x80003bfa	-2.1516e-41
67	0xbead2294	-0.33815444
68	0x3ea51d95	0.32249132
69	0xbeb3db6e	-0.3512835
70	0x3e9a6133	0.30152282
71	0x3e80ae5b	0.25133023
72	0x3e508c59	0.20366038
73	0x3e9b45ab	0.3032659
74	0x3e879a57	0.2648494
75	0x3ec93ca4	0.39304078
76	0x3e46d737	0.19418035
77	0x81484386	-3.6782644e-38
78	0x3e7106b9	0.2353772
79	0x3e8fc3c3	0.28079042
80	0x3e8293e7	0.25503466
81	0x3e90cfb0	0.28283453
82	0x80005b0f	-3.2666e-41
83	0xbeacbafe	-0.33736414
84	0x3ea71f41	0.32641032
85	0xbeadf90a	-0.33979064
86	0x3e9e26a8	0.30888867
87	0x3e807143	0.25086412
88	0x3e5e2848	0.21695054
89	0x3e9ed8b0	0.31024694
90	0x3e84347f	0.258213
91	0x3ecad4f6	0.396156
92	0x3e446c0d	0.19181843
93	0x02ef55e4	3.5167193e-37
94	0x3e7587b9	0.23977555
95	0x3e8d1d86	0.27561587
96	0xba8edb65	-0.0010899125
97	0x3a672178	0.0008816938
98	0x8119b9ee	-2.823506e-38
99	0xbb825d01	-0.003978372
100	0x39b9b2ac	0.0003541907
101	0xbd111fc4	-0.035430685
102	0xbae56e8d	-0.001750426
103	0xbb3a1f0d	-0.0028399855
104	0x3d7a52bf	0.06111407
105	0xbb293196	-0.002581691
106	0xb9f67374	-0.00047006796
107	0xbb67402d	-0.0035286054
108	0xbe0c4083	-0.13696484
109	0x2c7aff77	3.5668948e-12
110	0xbb0b0143	-0.002121047
111	0x3dd1bad2	0.10240711
112	0x3e89cfdf	0.26916406
113	0x3ea6ddb6	0.32591027
114	0x00001d3e	1.049e-41
115	0xbeb07809	-0.3446658
116	0x3ea3fa56	0.3202693
117	0xbeacfb8e	-0.3378567
118	0x3e9b47a6	0.303281
119	0x3e7c790a	0.24655548
120	0x3e70065f	0.2343993
121	0x3ea8e73e	0.32988924
122	0x3e8e9016	0.27844304
123	0x3eb77242	0.3582936
124	0x3e471127	0.19440137
125	0x00b5dbbb	1.6701049e-38
126	0x3e74b9be	0.2389898
127	0x3e8612f3	0.26186332
128	0x3e944dd5	0.2896563
129	0x3ea53b8d	0.32271996
130	0x800034fa	-1.9004e-41
131	0xbeb0e49a	-0.3454941
132	0x3ea060f7	0.31323978
133	0xbeaa1131	-0.3321624
134	0x3e92b2e5	0.2865211
135	0x3e837cc2	0.2568112
136	0x3e679e53	0.2261899
137	0x3ea3a641	0.3196278
138	0x3e90af3a	0.28258687
139	0x3ec23f39	0.3793886
140	0x3e50870c	0.20364016
141	0x8175c118	-4.513793e-38
142	0x3e8752e2	0.26430422
143	0x3e8906a8	0.2676289
144	0x3e80ebbd	0.25179854
145	0x3ea07d06	0.31345385
146	0x001274a9	1.694889e-39
147	0xbeaafc88	-0.3339579
148	0x3eae9c0f	0.34103438
149	0xbeab762e	-0.334886
150	0x3e9ad5f5	0.3024136
151	0x3e825717	0.2545707
152	0x3e55fcea	0.2089726
153	0x3ea46df9	0.32115152
154	0x3e8da18b	0.2766231
155	0x3ec2d02d	0.3804945
156	0x3e42e9a4	0.1903444
157	0x1ea82dcf	1.7806638e-20
158	0x3e71c964	0.2361198
159	0x3e8952ef	0.26821086
160	0x3e833fe7	0.2563469
161	0x3e954f52	0.2916208
162	0x0000246a	1.3063e-41
163	0xbeac2498	-0.3362167
164	0x3ea8d31e	0.3297357
165	0xbead7ec2	-0.3388577
166	0x3e9e1caa	0.30881244
167	0x3e7b2644	0.24526316
168	0x3e63ea00	0.22257233
169	0x3ea42238	0.32057357
170	0x3e90676b	0.28203902
171	0x3ec3c55c	0.3823651
172	0x3e460da3	0.1934114
173	0x0364bcf8	6.7220103e-37
174	0x3e6d6dcc	0.23186415
175	0x3e8d2497	0.27566978
176	0x3e7cca55	0.24686559
177	0x3e9f2e09	0.3108981
178	0x80005d74	-3.3525e-41
179	0xbeaf0326	-0.3418209
180	0x3ea92070	0.3303256
181	0xbeacea58	-0.3377254
182	0x3e9c7cee	0.30564064
183	0x3e7f4fac	0.24932736
184	0x3e65f82a	0.22457948
185	0x3e998dad	0.29990903
186	0x3e86e67b	0.26347718
187	0x3ec5427b	0.38527283
188	0x3e470b26	0.19437847
189	0x84331488	-2.1050776e-36
190	0x3e70262c	0.23452061
191	0x3e86cf4c	0.2633003
192	0x3e88a38a	0.2668727
193	0x3e9b457c	0.3032645
194	0x80016d7c	-1.31111e-40
195	0xbeaf4c34	-0.34237826
196	0x3ea9d860	0.33172894
197	0xbeabb6e1	-0.33537963
198	0x3e96886e	0.29400963
199	0x3e8201d7	0.2539203
200	0x3e644651	0.22292449
201	0x3ea31ad0	0.31856394
202	0x3e8db6db	0.2767857
203	0x3ec018c1	0.37518886
204	0x3e4c7204	0.19965369
205	0x0021a1db	3.088634e-39
206	0x3e6b7c0b	0.22996537
207	0x3e83865b	0.25688443
208	0x3e91f0f1	0.28504136
209	0x3e9fe88c	0.31232107
210	0x800003b2	-1.326e-42
211	0xbeabd8cc	-0.3356384
212	0x3ea4bf1b	0.32177052
213	0xbeaabbd0	-0.33346415
214	0x3e9e7231	0.30946496
215	0x3e7cbd01	0.24681474
216	0x3e5ef300	0.21772385
217	0x3ea690ef	0.3253245
218	0x3e8e3ca6	0.27780646
219	0x3ecb78ca	0.39740592
220	0x3e4bd9f8	0.19907367
221	0x00697255	9.683742e-39
222	0x3e781a3b	0.24228756
223	0x3e85ccb3	0.26132736
224	0x3e8a4471	0.27005342
225	0x3e966b08	0.29378533
226	0x00010dc9	9.678e-41
227	0xbeac69b5	-0.33674398
228	0x3ea44a3d	0.3208789
229	0xbeadce61	-0.33946517
230	0x3ea0032f	0.3125243
231	0x3e883e48	0.26610017
232	0x3e615872	0.22006395
233	0x3e9f3fc8	0.3110335
234	0x3e94ba16	0.29048222
235	0x3ebe1c2c	0.37130868
236	0x3e526b33	0.20548706
237	0x01284cc4	3.0911803e-38
238	0x3e7b0e5b	0.24517195
239	0x3e8968b0	0.26837683
240	0x3e88a2e8	0.26686788
241	0x3e9b624c	0.30348432
242	0x000026ea	1.396e-41
243	0xbeb136ff	-0.3461227
244	0x3ea3ffb5	0.32031026
245	0xbeaf8c39	-0.3428667
246	0x3e984f60	0.29748058
247	0x3e8925bc	0.26786602
248	0x3e5d9178	0.21637523
249	0x3ea1cb56	0.31600446
250	0x3e7f41b5	0.24927409
251	0x3ec81530	0.39078665
252	0x3e4a6fca	0.19769207
253	0x81050c6e	-2.443716e-38
254	0x3e84b4a9	0.25919083
255	0x3e84efab	0.25964102

linear.weight f4 [2, 16]
0	0xbf452cc0	-0.7702141
1	0xbf412935	-0.754535
2	0xbf3d4024	-0.73925996
3	0xbf28cb7b	-0.65935487
4	0xbf1b65cb	-0.607022
5	0xbf4568fb	-0.7711331
6	0x3d080e70	0.033216894
7	0xbf373ec2	-0.71580136
8	0xbf437666	-0.76352537
9	0xbf421d98	-0.75826406
10	0xbf444c14	-0.76678586
11	0xbf43470a	-0.7628027
12	0xbf4587da	-0.7716042
13	0xbf4630b6	-0.77418077
14	0xbf460f2d	-0.77366906
15	0xbf437e41	-0.76364523
16	0x3f2f140a	0.6838995
17	0x3f3f9d50	0.74849415
18	0x3f476254	0.7788441
19	0x3f45a146	0.7719921
20	0x3f49be67	0.78806156
21	0x3f457be7	0.77142185
22	0xbd262b84	-0.040568843
23	0x3f43c11e	0.7646655
24	0x3f4520c1	0.77003103
25	0x3f43bc48	0.7645917
26	0x3f443f0c	0.766587
27	0x3f4345c5	0.76278335
28	0x3f3f0451	0.7461596
29	0x3f4642b7	0.7744555
30	0x3f460ce1	0.773634
31	0x3f411b44	0.7543223

linear.bias f4 [2]
0	0x3e64741f	0.22309922
1	0xbe92bc9c	-0.28659523
