visualization/gcn_model_weights.pth (torch, 14764 bytes, 6 tensors)

conv1.bias f4 [16]
000000 92 27 46 3e 11 03 9a 3e 99 a1 c0 3e 6d d5 fe 3e
       0.19351032 0.30080464 0.3762329 0.49772206
000010 55 06 0b 3e eb cc da aa 75 87 9f 3e fc 84 af 3e
       0.13576634 -3.886677e-13 0.31158033 0.34281147
000020 2b 2d fc bc 29 08 8c bc f2 3e e0 3d a5 64 2d 3f
       -0.030783257 -0.017093735 0.10949506 0.67731696
000030 1d af 9e 3e e6 b2 97 29 07 2e f4 09 c7 0b ef 3e
       0.30992976 6.736781e-14 5.8784147e-33 0.46688673

conv1.lin.weight f4 [16, 166]
000000 c3 d0 85 bc 52 e5 3a 3c eb 46 33 3d d5 2f b5 be
       -0.016334897 0.011407213 0.043768805 -0.35388055
000010 fa 41 cd 3d de f6 e1 3c 1e 00 b3 bd 21 16 2b bd
       0.1002235 0.027583536 -0.08740257 -0.04176915
000020 3e 65 d1 3d ef 06 67 3d d2 00 15 bd 6c 15 db 3d
       0.102243885 0.056403097 -0.036377735 0.10697445
000030 25 d6 a3 3c d1 6f 52 3d d5 58 03 3d 1a eb 91 3a
       0.019999573 0.051376168 0.03206714 0.0011132688
000040 8c 07 35 3a 59 d8 33 3d e8 bb 62 bd 5a 89 e6 bd
       0.00069057266 0.043907497 -0.055354983 -0.112566665
000050 9b 90 1a be bd ec 59 3e 1d a1 95 3c fc 91 dd bc
       -0.15094225 0.21281715 0.018265301 -0.02704715
000060 3b 46 4c bd 22 c3 5d 3c b0 6d bd bd 88 a4 b8 bc
       -0.049871664 0.013535293 -0.09249437 -0.022539392
000070 aa 96 9f 3c 61 0a 02 bd 03 50 4c bd 75 38 0d 3c
       0.019481022 -0.03174818 -0.049880993 0.008619417
000080 d0 d8 ba bd 33 b3 7d 3d 8f e3 19 3d 32 9a f7 3c
       -0.09123385 0.061938476 0.037570532 0.030224893
000090 fc 0a a3 bd ea dc 96 3c c9 21 06 3e 5e 88 17 be
       -0.079610795 0.018415887 0.13098826 -0.14798114
0000a0 68 7a 13 3d a8 ed 0f bc 46 cf a9 3c 0a ab 8f bc
       0.036005408 -0.008784689 0.020728718 -0.017537612
0000b0 33 3d c4 bd 15 38 8f bc c2 62 2d 3a ec b4 93 bb
       -0.09581985 -0.017482797 0.00066141423 -0.0045076516
0000c0 9a 80 9c 3b 13 b5 90 3b 4c 0d 15 3d 79 b4 a3 3d
       0.0047760727 0.004416117 0.036389634 0.07993407
0000d0 c5 34 e1 3d be 58 be bd e2 e7 c3 3c bc 0e 6f be
       0.10996393 -0.0929427 0.023914281 -0.23345464
0000e0 e0 7e 8f 3d 73 fd 87 bd 74 e0 0b 3d db a7 37 bd
       0.07006621 -0.066401385 0.034149602 -0.044837814
0000f0 b9 e8 a4 3c d6 e6 5c 3d 93 7d 4e be aa 59 d1 bd
       0.020130502 0.05393108 -0.2016509 -0.1022218
000100 99 e1 0b 3d 2e 03 21 bd 00 a6 ca 3c 37 f2 37 3d
       0.034150694 -0.039309673 0.024737358 0.04490873
000110 a2 24 0d be 38 5d 17 bb e1 cf bf 3c 44 05 52 bd
       -0.13783506 -0.0023096334 0.023414554 -0.051274553
000120 83 ee c3 bd ad c4 fb bd 9f 1a 7d 3e 0b 1b 83 3e
       -0.09566977 -0.12293372 0.24717186 0.2560657
000130 d1 f3 02 3d fc 5f 1f 3c 1f a5 3f 3b f1 6e c9 3c
       0.031970803 0.009727474 0.0029242707 0.024589034
000140 85 31 c3 3b b8 6d 93 3d fe f5 0c be e2 6b 41 bd
       0.005956831 0.071986616 -0.13765714 -0.047222026
000150 11 78 09 bd bc a9 39 bb 4f dd 2e be 84 fc 9f 3d
       -0.03356177 -0.002832993 -0.1707661 0.078118354
000160 20 29 c8 bd ed 09 ea 3d 07 4c b6 3d 47 84 62 be
       -0.09773469 0.114276744 0.0890122 -0.22120772
000170 45 b3 74 be 98 06 82 bd ee 08 54 3d e1 8f cf bd
       -0.23896511 -0.06348914 0.05176633 -0.101348646
000180 8e ef 33 3b b5 51 27 3c 97 2a 7f bd 9f fd 28 3e
       0.0027456018 0.010212352 -0.062296476 0.16502999
000190 e8 c5 61 3e b9 d7 64 3e 2a b6 5b 3d e3 10 65 3e
       0.22048151 0.22347917 0.053640522 0.22369723
0001a0 0d a8 1f 3d 18 b5 49 3b 35 cd a8 3d bf a0 8c bd
       0.038978625 0.0030778106 0.08242265 -0.068665974
0001b0 24 71 ae bd 64 19 ad bd 07 58 53 3d 57 a6 c8 bd
       -0.085176736 -0.084521085 0.05159762 -0.09797352
0001c0 ee b9 61 3e 6e 32 8c 3d 24 e1 ac bb ac 57 6c be
       0.22043583 0.06845556 -0.0052758623 -0.23080319
0001d0 43 7c 95 3c 68 76 26 bc 33 83 80 bc c6 23 17 3e
       0.01824773 -0.010160066 -0.01568756 0.1475974
0001e0 00 c2 9d bd 69 c4 df bd b4 c5 01 3d c5 c4 1d 3e
       -0.07703018 -0.10926134 0.031682685 0.15407093
0001f0 06 4d a7 bb 6e 12 74 bc b7 b2 bb 3d 39 5d 58 3d
       -0.0051056175 -0.014896972 0.091649465 0.05282328
000200 15 be 09 be 85 e9 88 3c 46 38 1c 3e 7c d0 70 bd
       -0.13451417 0.016712913 0.15255842 -0.058792576
000210 5b b6 78 3c 9e 12 90 3d da 27 4b 3d 8e 15 d7 bc
       0.015180196 0.07034801 0.049598552 -0.026255395
000220 15 b5 10 3e 30 10 f4 3d 1b 39 3a 3e ce 3f dc 3d
       0.14131577 0.1191715 0.18185847 0.10754357
000230 12 82 62 3c e2 82 d0 3c 74 9e f2 be 8f dc 0b be
       0.0138249565 0.025453035 -0.47386515 -0.13658355
000240 8e 0b d8 3d 46 68 20 be e1 cc 2a be 21 17 d0 3d
       0.10549079 -0.15664777 -0.16679718 0.101606615
000250 54 6d 18 be 78 96 98 3d 7f 5c 70 bd 01 38 8e bd
       -0.14885455 0.07450575 -0.05868196 -0.06944276
000260 24 54 98 3c 35 db 3f bd 39 73 4e bc 7a 61 86 bd
       0.018594809 -0.04683991 -0.012600713 -0.06561561
000270 cf 4a 86 bd 9b ae e7 3d b0 cf c6 bc 82 9f 8c bc
       -0.06557237 0.113126 -0.024268955 -0.017165903
000280 ce 5b cf bd 31 56 d1 bc c0 79 bd bc e1 12 d1 3d
       -0.10124932 -0.025553795 -0.023129344 0.10208679
000290 28 fb 82 3e 7a b9 fb 3c 7d 34 a7 bd 31 ad ab bd
       0.25582242 0.03072809 -0.08164308 -0.08382643
0002a0 b4 a9 bc 3c 77 9d e6 3e 6b e8 ab 3d 20 26 dd bd
       0.02303014 0.4504201 0.083939396 -0.107982874
0002b0 2f 72 a2 bd c4 70 ad 3d 62 da 09 bd 21 e1 34 bd
       -0.07931935 0.08468774 -0.03365553 -0.044160012
0002c0 ba 00 86 bd 88 95 15 bd 26 7a ad 3e 67 5d 2f 3e
       -0.06543107 -0.036519557 0.33882254 0.17125474
0002d0 1f ef e1 bd 84 55 44 3b 94 33 83 3d 80 93 bf bd
       -0.11031937 0.0029958198 0.06406322 -0.09354305
0002e0 74 13 b2 3d 9a f8 ea 3d a3 a9 42 3d 21 98 57 bd
       0.08695117 0.11473198 0.04752506 -0.052635316
0002f0 64 42 cf 3b 68 5b 09 3c c4 77 30 3d ff cc 8b bc
       0.006325053 0.008383609 0.043082967 -0.017065523
000300 85 ab 57 be 9d 01 95 3d aa 91 d0 3b f4 53 08 3c
       -0.21061523 0.07275698 0.0063650208 0.008320797
000310 0d 58 30 3d f3 f7 8a bc 6e 0d 62 be d8 19 7e 3d
       0.04305272 -0.016963935 -0.22075436 0.062036365
000320 a5 37 2e 3d 09 3a fd 3d 12 79 d4 bd cb 96 e1 3c
       0.042533536 0.12364585 -0.10374655 0.027537724
000330 7f 33 f9 bd af 5b 47 3e 70 26 00 be e6 c9 e5 bd
       -0.12168025 0.19468568 -0.12514663 -0.1122015
000340 a6 4e e6 3d de d7 42 be 84 fd d2 3d f6 03 63 bd
       0.1124547 -0.1902766 0.103022605 -0.0554237
000350 4f f5 08 3e c0 71 f9 3d cc bc 8a bc 72 a8 c8 3d
       0.13374828 0.12179899 -0.016935728 0.097977534
000360 1a 37 a2 bb 16 fd 24 bd 1b 78 c4 3d 3e a4 13 be
       -0.0049504163 -0.040280424 0.09593221 -0.14418122
000370 15 81 40 3d cd 7f 47 3e a8 05 14 be 16 d5 37 3e
       0.046998102 0.19482346 -0.14455283 0.1795238
000380 fe f4 50 3d 0a 23 98 3d f9 00 df bc 8d 7c 77 bd
       0.051014893 0.07428558 -0.027222143 -0.060421515
000390 2e 8d b0 bd 7b 3f a2 bd 16 4b 51 3d cc d4 99 3d
       -0.08620678 -0.07922264 0.051097 0.07511291
0003a0 97 f7 dc bc 00 4a 6e bd d4 ea 61 bc 0c 97 2c 3c
       -0.026973529 -0.05817604 -0.013788898 0.010534059
0003b0 d1 5c 3a bd 5e b4 10 3e ee 88 07 bc 77 12 97 bd
       -0.045498673 0.14131305 -0.008272393 -0.07376569
0003c0 82 a8 06 be 1c 3f 26 be 03 d8 a0 bb cc d2 75 bd
       -0.13150218 -0.16235012 -0.004908563 -0.060015485
0003d0 56 84 66 bc 7a 6e 6c 3c 88 91 26 bc a2 9b d0 bd
       -0.014069637 0.014430637 -0.010166533 -0.101859346
0003e0 cd 74 1a 3d 16 a7 22 bd c0 c1 93 3a 6c ec 08 3d
       0.037709046 -0.039710127 0.0011272952 0.033428594
0003f0 ca 1c 81 3d ec 04 a3 bb e9 c5 d3 bc 10 fd 4c 3e
       0.06304319 -0.004974952 -0.025851207 0.2001841

conv2.bias f4 [16]
000000 eb 34 4d 3e 63 6a 4c 3e 26 1c 50 3e 2f cb 4e 3e
       0.20039718 0.19962458 0.20323238 0.20194696
000010 e5 a7 50 3e bf cc 33 3e db ab 50 3e b4 1a 4f 3e
       0.20376547 0.17558573 0.20378058 0.2022503
000020 59 38 4f 3e d9 da 22 3e fa e3 23 3e 5a 47 35 3e
       0.20236339 0.15903796 0.16004935 0.17703
000030 40 c9 43 3e f4 cb 4e 3e 9b 56 4f 3e 37 b3 1d 3e
       0.1911974 0.2019499 0.20247881 0.15400396

conv2.lin.weight f4 [16, 16]
000000 53 27 83 3e 85 09 ba 3e b4 01 d8 3e e0 50 83 be
       0.2561594 0.36335388 0.421888 -0.2564764
000010 9b 18 69 3e 58 56 00 80 11 4e 89 3e e5 15 3f 3e
       0.22763292 -3.0974e-41 0.26817372 0.18660696
000020 82 90 9f 3e c7 23 98 3e f2 ff 8b 3e 2c a6 bf be
       0.31164938 0.29714796 0.27343708 -0.37431467
000030 c4 25 bc 3e 4b 41 95 ac a1 88 00 00 09 40 c7 be
       0.36747563 -4.2420837e-12 4.9013e-41 -0.38916042
000040 0f 4a 71 3e 98 62 be 3e 03 c8 da 3e 47 9d 84 be
       0.23563407 0.37184596 0.42730722 -0.25901243
000050 7c 0c 67 3e 67 45 00 80 52 ac 8e 3e f6 64 42 3e
       0.22563356 -2.4897e-41 0.27865845 0.18983826
000060 c0 98 a4 3e 11 ec 93 3e 19 26 88 3e ef 34 be be
       0.3214779 0.28891042 0.26591566 -0.3714976
000070 06 70 ba 3e c4 b7 cc ab e8 43 00 00 84 55 c8 be
       0.36413592 -1.4546077e-12 2.436e-41 -0.39127743
000080 44 47 8d 3e b1 75 a5 3e 1d a0 de 3e c0 7a 81 be
       0.27593434 0.32316354 0.43481532 -0.25288963
000090 4d 10 6e 3e 7a 44 45 06 2e 86 8c 3e 8c 29 57 3e
       0.23248406 3.710189e-35 0.2744612 0.21011943
0000a0 e6 94 93 3e 5d d8 95 3e 27 f3 85 3e e8 38 bf be
       0.28824538 0.29266635 0.26162073 -0.37348104
0000b0 cc fd b7 3e 6c 5b 39 aa 12 93 00 80 84 fb c5 be
       0.3593582 -1.6463019e-13 -5.2759e-41 -0.38668454
0000c0 d5 8c 70 3e b5 8c c0 3e 61 ed da 3e 43 ea 86 be
       0.23491223 0.3760735 0.4275923 -0.26350603
0000d0 10 7c 72 3e 9d 60 00 00 69 8b 87 3e 82 54 46 3e
       0.23680139 3.4658e-41 0.2647355 0.19368175
0000e0 c7 98 9e 3e 5f 41 94 3e 78 90 8e 3e f2 ba bf be
       0.30975935 0.28956124 0.27844596 -0.37447315
0000f0 6d 56 be 3e 88 06 20 ac a0 dc 0d 80 ba 12 c9 be
       0.37175313 -2.2740993e-12 -1.273007e-39 -0.392721
000100 5f 04 79 3e 08 14 b1 3e fc d4 df 3e 04 e0 85 be
       0.24318074 0.34585595 0.43717182 -0.26147473
000110 fe 23 76 3e 4a 45 00 00 85 95 8c 3e af 08 48 3e
       0.24037167 2.4856e-41 0.27457824 0.19534563
000120 4e fa 9f 3e f7 56 92 3e 71 83 8c 3e 5e 94 bf be
       0.31245655 0.28581974 0.27444032 -0.37417883
000130 30 9d c3 3e 80 a1 d8 ab 64 b4 00 00 1d cf c7 be
       0.38205862 -1.5392548e-12 6.4712e-41 -0.39025202
000140 a0 a1 9d 3e 3a b7 27 3e 52 6a e7 3e 47 d7 d2 bd
       0.30787373 0.16378489 0.45198303 -0.10294967
000150 52 87 45 3e d2 47 cf 19 20 94 88 3e 45 58 6a 3e
       0.19289902 2.1432306e-23 0.2667551 0.22885235
000160 04 b8 d0 3d 6b 82 4a 3e cb 70 51 3e 91 97 a3 be
       0.10191348 0.19776313 0.20453183 -0.31951573
000170 be 7d 90 3e dc 5d 61 aa 1b ca 16 80 3e f2 b7 be
       0.28220934 -2.0016578e-13 -2.092883e-39 -0.35927004
000180 da 69 72 3e 02 7b bd 3e 16 1c da 3e db a4 83 be
       0.23673192 0.3700791 0.42599553 -0.25711712
000190 06 73 73 3e c2 7b 00 00 af 4c 8d 3e 07 aa 43 3e
       0.23774347 4.4396e-41 0.27597567 0.19107829
0001a0 83 a0 9a 3e 5f 8c 8f 3e b0 da 8b 3e 1f 31 bc be
       0.30200586 0.28036782 0.27315283 -0.36756226
0001b0 6c 31 c4 3e 55 f5 67 ab 67 93 01 00 34 80 c9 be
       0.38318956 -8.240815e-13 1.44713e-40 -0.39355624
0001c0 a8 ea 6c 3e 19 aa c1 3e 8b ae da 3e 33 ff 84 be
       0.2313639 0.37825087 0.4271129 -0.25975952
0001d0 70 d6 72 3e ee 5b 00 00 77 c5 8a 3e 71 c8 45 3e
       0.23714614 3.2978e-41 0.2710378 0.19314744
0001e0 6d 0d a4 3e 13 f2 9c 3e f7 4f 88 3e c3 5a bb be
       0.32041493 0.30653438 0.26623508 -0.36592683
0001f0 06 c0 c5 3e c8 a7 b7 ab 26 48 01 80 f8 d3 c5 be
       0.38623065 -1.3049501e-12 -1.17717e-40 -0.38638282
000200 bf 19 80 3e 3e fc b5 3e e8 52 d8 3e e4 fc 85 be
       0.25019643 0.35544008 0.42250752 -0.26169503
000210 b9 04 6d 3e e1 98 00 80 8c c4 8a 3e 84 23 44 3e
       0.23146333 -5.4843e-41 0.27103078 0.19154173
000220 9f 31 a8 3e 5f d8 98 3e 80 1a 8e 3e d9 d8 bd be
       0.32850358 0.29852578 0.27754593 -0.37079504
000230 ab 20 c1 3e 7d 67 de aa 68 1d 00 00 21 e5 c5 be
       0.37720236 -3.950693e-13 1.0549e-41 -0.38651374
000240 47 af a3 be ad 5e 8f be d7 00 0a bf 17 d0 07 bd
       -0.31969664 -0.2800192 -0.5390753 -0.033157434
000250 5f 89 f8 be 8a 45 59 33 20 de 05 bf 70 16 f9 be
       -0.48542306 5.0587495e-08 -0.5229206 -0.4864993
000260 ba 7d e3 bd 08 46 78 be 57 ff 84 be d0 9c 42 3e
       -0.11107965 -0.24245465 -0.2597606 0.19005132
000270 be 24 91 be 7e 7c 1b a9 f1 fd 00 00 e0 71 b7 3d
       -0.28348345 -3.4524894e-14 9.1097e-41 0.08957267
000280 07 0b a4 be 57 6d 8c be 9e e4 0a bf 5a 3a 33 bd
       -0.32039663 -0.2742717 -0.5425509 -0.04375682
000290 d9 29 fa be 98 be 07 80 f1 21 02 bf a6 62 ed be
       -0.48860052 -7.1122e-40 -0.5083304 -0.46364325
0002a0 4d 29 e5 bd 26 24 89 be 37 af 81 be 49 f1 3f 3e
       -0.11189518 -0.26785392 -0.2532899 0.18744387
0002b0 23 0f 8f be 40 b9 10 2a f0 1c 01 80 c3 d7 c4 3d
       -0.27941236 1.2854041e-13 -1.02216e-40 0.09611466
0002c0 3c e4 94 3e b3 27 6f 3e 4a e1 e3 3e 16 38 2c be
       0.2908038 0.23354988 0.4450782 -0.1681827
0002d0 5f 6b 4d 3e e0 12 97 b0 4f 4c 87 3e 4e 2d 45 3e
       0.2006049 -1.0992061e-09 0.26425406 0.19255564
0002e0 78 2f 47 3e c5 9e 7e 3e f4 a7 52 3e 73 f8 a5 be
       0.19451702 0.24865253 0.20571882 -0.32416114
0002f0 1a d0 a5 3e 3e b7 0c aa 8c 9d 8d 98 d2 e1 be be
       0.3238533 -1.2498073e-13 -3.6606727e-24 -0.37281662
000300 47 58 9b 3e 22 d2 86 3e 28 91 f4 3e 15 fd 51 be
       0.30340788 0.26332194 0.47766995 -0.205067
000310 ee 22 5f 3e a1 46 cf ab 7e 28 81 3e 7a 21 42 3e
       0.21790668 -1.4727838e-12 0.25226206 0.18958083
000320 67 06 7e 3e 88 47 80 3e f6 fa 67 3e 0c 60 af be
       0.2480713 0.25054574 0.22654328 -0.34252965
000330 44 d6 b8 3e b0 8f 93 aa 53 f4 10 14 cc 3a c6 be
       0.36100972 -2.621215e-13 7.3183266e-27 -0.38716733
000340 79 57 79 3e 25 f5 b7 3e 1e dc d7 3e c4 0c 84 be
       0.24349774 0.35929218 0.42160124 -0.2579099
000350 04 17 71 3e fd f7 00 00 4f 44 8a 3e d7 ee 3f 3e
       0.23543936 8.8961e-41 0.2700524 0.18743454
000360 d4 98 ad 3e 79 fd 98 3e 9d 27 88 3e f4 ce bd be
       0.3390566 0.29880884 0.26592723 -0.37071955
000370 60 ca c0 3e f6 ef 9c ac 7b 95 00 00 39 d6 c9 be
       0.376544 -4.4604277e-12 5.3623e-41 -0.3942125
000380 f2 2f 85 3e d5 17 b6 3e 5c a4 d3 3e 8a c2 84 be
       0.26013142 0.35565057 0.41336334 -0.25929672
000390 8c 0a 76 3e b5 7d 01 80 a6 fc 8e 3e 38 db 46 3e
       0.24027461 -1.3693e-40 0.2792713 0.19419563
0003a0 92 58 9d 3e 58 ba 95 3e 9f a5 85 3e 03 8c c0 be
       0.30731636 0.29243731 0.2610292 -0.3760682
0003b0 b1 ed bd 3e c3 85 79 ac b4 21 01 00 1b c0 c6 be
       0.37095407 -3.545928e-12 1.03926e-40 -0.3881844
0003c0 7c 82 a2 be 2f 0e 8e be 1b f7 08 bf 7d 09 35 bd
       -0.31740177 -0.27745196 -0.53502053 -0.0441985
0003d0 19 37 f6 be 12 f4 b1 32 32 f3 05 bf 50 71 ed be
       -0.4808891 2.0716502e-08 -0.5232421 -0.46375513
0003e0 90 e4 f0 bd 6f 41 83 be 8d 80 87 be e8 60 3f 3e
       -0.11762345 -0.2563586 -0.26465264 0.1868931
0003f0 e2 0c 8d be 7a 54 c5 a8 e7 3f 79 22 dd 5c c4 3d
       -0.2754889 -2.190803e-14 3.3779622e-18 0.09588025

linear.weight f4 [2, 16]
000000 f9 dd 43 bf 79 d7 4a bf f9 eb 28 bf ba 22 4d bf
       -0.7651058 -0.79235035 -0.65985066 -0.80131114
000010 49 6a 4d bf 48 8e 89 be 06 09 4e bf 25 3e 4b bf
       -0.80240303 -0.26866364 -0.8048252 -0.793917
000020 1c ed 4b bf fa c5 5b 3f db 93 5b 3f c3 62 0a bf
       -0.79658675 0.85848963 0.85772485 -0.5405695
000030 70 d7 17 bf f7 fc 4b bf 96 cf 53 bf eb 4d 4e 3f
       -0.59313107 -0.7968287 -0.82738626 0.80587643
000040 ee b7 4d 3f 6b d7 4a 3f 8a ff 41 3f cc 2a 4d 3f
       0.8035878 0.7923495 0.75780547 0.8014343
000050 a1 6a 4d 3f 1e a5 00 3f f9 09 4e 3f a6 85 4c 3f
       0.8024083 0.5025195 0.8048397 0.7989143
000060 c1 eb 4b 3f ed c6 5b bf da 93 5b bf cb ce 13 3f
       0.79656607 -0.8585041 -0.8577248 0.57737416
000070 32 ad 21 3f e0 2a 4e 3f 81 ba 3c 3f 0c 81 5a bf
       0.631549 0.8053417 0.7372208 -0.8535316

linear.bias f4 [2]
000000 31 7e a7 be 54 58 4e 3e
       -0.32713464 0.20150882
